Neural Network Tools for STM32AI v1.6.0 (STM.ai v7.2.0-RC5)
Created date          : 2022-09-30 21:03:35
Parameters            : generate --name network -m C:/Users/len12/Documents/tinyml_contest2022_demo_example-master/saved_models/model_7_epoch3.onnx --type onnx --compression high --verbosity 1 --workspace C:\Users\len12\AppData\Local\Temp\mxAI_workspace4861256148421009533076178420777812 --output C:\Users\len12\.stm32cubemx\network_output --allocate-inputs --allocate-outputs

Exec/report summary (generate)
------------------------------------------------------------------------------------------------------------------------
model file            : C:\Users\len12\Documents\tinyml_contest2022_demo_example-master\saved_models\model_7_epoch3.onnx
type                  : onnx
c_name                : network
compression           : high
allocator strategy    : ['allocate-inputs', 'allocate-outputs']
workspace dir         : C:\Users\len12\AppData\Local\Temp\mxAI_workspace4861256148421009533076178420777812
output dir            : C:\Users\len12\.stm32cubemx\network_output
model_name            : model_7_epoch3
model_hash            : 8adb029a92b3f3bae5d3d43eabba3051
input 1/1             : 'input_1'
                        1250 items, 4.88 KiB, ai_float, float, (1,1250,1,1), domain:activations/**default**
output 1/1            : 'node_61'
                        2 items, 8 B, ai_float, float, (1,1,1,2), domain:activations/**default**
params #              : 1,056 items (4.12 KiB)
macc                  : 38,534
weights (ro)          : 2,188 B (2.14 KiB) (1 segment) / -2,036(-48.2%) vs float model
activations (rw)      : 5,108 B (4.99 KiB) (1 segment) *
ram (total)           : 5,108 B (4.99 KiB) = 5,108 + 0 + 0

(*) input/output buffers can be used from the activations buffer

Model name - model_7_epoch3 ['input_1'] ['node_61']
--------------------------------------------------------------------------------------------------------------------------------------------------------------------------------
id   layer (type,original)                            oshape                 param/size   macc     connected to     |   c_size           c_macc              c_type            
--------------------------------------------------------------------------------------------------------------------------------------------------------------------------------
19   fc1_1_weight (Placeholder, Gemm)                 [h:60,c:10]            600/2,400                              |   -1,996(-83.2%)   +610(+100.0%)       dense_wc4of32[13] 
     fc1_1_bias (Placeholder, Gemm)                   [c:10]                 10/40                                  |   -40(-100.0%)                        
--------------------------------------------------------------------------------------------------------------------------------------------------------------------------------
21   fc2_0_weight (Placeholder, Gemm)                 [h:10,c:2]             20/80                                  |   +8(+10.0%)       +22(+100.0%)        dense_of32[o][15] 
     fc2_0_bias (Placeholder, Gemm)                   [c:2]                  2/8                                    |   -8(-100.0%)                         
--------------------------------------------------------------------------------------------------------------------------------------------------------------------------------
0    input_1 (Input, )                                [b:1,h:1250,w:1,c:1]                                          |                                       
--------------------------------------------------------------------------------------------------------------------------------------------------------------------------------
1    input (Conv2D, Conv)                             [b:1,h:311,w:1,c:3]    33/132       9,333    input_1          |   -132(-100.0%)    -9,333(-100.0%)    
--------------------------------------------------------------------------------------------------------------------------------------------------------------------------------
2    input_4 (Nonlinearity, Relu)                     [b:1,h:311,w:1,c:3]                 933      input            |   +132(+100.0%)    +9,333(+1000.3%)    conv2d_of32[0]    
--------------------------------------------------------------------------------------------------------------------------------------------------------------------------------
3    input_8 (ScaleBias, BatchNormalization)          [b:1,h:311,w:1,c:3]    6/24         1,866    input_4          |                                        bn_of32[1]        
--------------------------------------------------------------------------------------------------------------------------------------------------------------------------------
4    input_12 (Conv2D, Conv)                          [b:1,h:154,w:1,c:5]    80/320       11,555   input_8          |   -320(-100.0%)    -11,555(-100.0%)   
--------------------------------------------------------------------------------------------------------------------------------------------------------------------------------
5    input_16 (Nonlinearity, Relu)                    [b:1,h:154,w:1,c:5]                 770      input_12         |   +320(+100.0%)    +11,555(+1500.6%)   conv2d_of32[2]    
--------------------------------------------------------------------------------------------------------------------------------------------------------------------------------
6    onnxMaxPool_45 (ScaleBias, BatchNormalization)   [b:1,h:154,w:1,c:5]    10/40        1,540    input_16         |                                        bn_of32[3]        
--------------------------------------------------------------------------------------------------------------------------------------------------------------------------------
7    input_20 (Pool, MaxPool)                         [b:1,h:154,w:1,c:5]                 2,310    onnxMaxPool_45   |                                        pool_of32[4]      
--------------------------------------------------------------------------------------------------------------------------------------------------------------------------------
8    input_24 (Conv2D, Conv)                          [b:1,h:51,w:1,c:5]     105/420      5,105    input_20         |   -420(-100.0%)    -5,105(-100.0%)    
--------------------------------------------------------------------------------------------------------------------------------------------------------------------------------
9    input_28 (Nonlinearity, Relu)                    [b:1,h:51,w:1,c:5]                  255      input_24         |   +420(+100.0%)    +5,105(+2002.0%)    conv2d_of32[5]    
--------------------------------------------------------------------------------------------------------------------------------------------------------------------------------
10   input_32 (ScaleBias, BatchNormalization)         [b:1,h:51,w:1,c:5]     10/40        510      input_28         |                                        bn_of32[6]        
--------------------------------------------------------------------------------------------------------------------------------------------------------------------------------
11   input_36 (Conv2D, Conv)                          [b:1,h:25,w:1,c:5]     80/320       1,880    input_32         |   -320(-100.0%)    -1,880(-100.0%)    
--------------------------------------------------------------------------------------------------------------------------------------------------------------------------------
12   input_40 (Nonlinearity, Relu)                    [b:1,h:25,w:1,c:5]                  125      input_36         |   +320(+100.0%)    +1,880(+1504.0%)    conv2d_of32[7]    
--------------------------------------------------------------------------------------------------------------------------------------------------------------------------------
13   onnxMaxPool_52 (ScaleBias, BatchNormalization)   [b:1,h:25,w:1,c:5]     10/40        250      input_40         |                                        bn_of32[8]        
--------------------------------------------------------------------------------------------------------------------------------------------------------------------------------
14   input_44 (Pool, MaxPool)                         [b:1,h:25,w:1,c:5]                  375      onnxMaxPool_52   |                                        pool_of32[9]      
--------------------------------------------------------------------------------------------------------------------------------------------------------------------------------
15   input_48 (Conv2D, Conv)                          [b:1,h:12,w:1,c:5]     80/320       905      input_44         |   -320(-100.0%)    -905(-100.0%)      
--------------------------------------------------------------------------------------------------------------------------------------------------------------------------------
16   input_52 (Nonlinearity, Relu)                    [b:1,h:12,w:1,c:5]                  60       input_48         |   +320(+100.0%)    +905(+1508.3%)      conv2d_of32[10]   
--------------------------------------------------------------------------------------------------------------------------------------------------------------------------------
17   onnxReshape_56 (ScaleBias, BatchNormalization)   [b:1,h:12,w:1,c:5]     10/40        120      input_52         |                                        bn_of32[11]       
--------------------------------------------------------------------------------------------------------------------------------------------------------------------------------
18   input_56 (Reshape, Reshape)                      [b:1,c:60]                                   onnxReshape_56   |                                        transpose_of32[12]
--------------------------------------------------------------------------------------------------------------------------------------------------------------------------------
19   onnxRelu_59 (Gemm, Gemm)                         [b:1,c:10]                          610      input_56         |                    -610(-100.0%)      
                                                                                                   fc1_1_weight     |  
                                                                                                   fc1_1_bias       |  
--------------------------------------------------------------------------------------------------------------------------------------------------------------------------------
20   onnxGemm_60 (Nonlinearity, Relu)                 [b:1,c:10]                          10       onnxRelu_59      |                                        nl_of32[14]       
--------------------------------------------------------------------------------------------------------------------------------------------------------------------------------
21   node_61 (Gemm, Gemm)                             [b:1,c:2]                           22       onnxGemm_60      |                    -22(-100.0%)       
                                                                                                   fc2_0_weight     |  
                                                                                                   fc2_0_bias       |  
--------------------------------------------------------------------------------------------------------------------------------------------------------------------------------
model/c-model: macc=38,534/38,534  weights=4,224/2,188 -2,036(-48.2%) activations=--/5,108 io=--/0



Generated C-graph summary
------------------------------------------------------------------------------------------------------------------------
model name            : model_7_epoch3
c-name                : network
c-node #              : 16
c-array #             : 41
activations size      : 5108 (1 segments)
weights size          : 2188 (1 segments)
macc                  : 38534
inputs                : ['input_1_output']
outputs               : ['node_61_output']

C-Arrays (41)
-----------------------------------------------------------------------------------------------------------
c_id   name (*_array)              item/size   domain/mem-pool           c-type        fmt         comment
-----------------------------------------------------------------------------------------------------------
0      input_1_output              1250/5000   activations/**default**   float         float       /input 
1      input_output                933/3732    activations/**default**   float         float              
2      input_8_output              933/3732    activations/**default**   float         float              
3      input_12_output             770/3080    activations/**default**   float         float              
4      onnxMaxPool_45_output       770/3080    activations/**default**   float         float              
5      input_20_output             770/3080    activations/**default**   float         float              
6      input_24_output             255/1020    activations/**default**   float         float              
7      input_32_output             255/1020    activations/**default**   float         float              
8      input_36_output             125/500     activations/**default**   float         float              
9      onnxMaxPool_52_output       125/500     activations/**default**   float         float              
10     input_44_output             125/500     activations/**default**   float         float              
11     input_48_output             60/240      activations/**default**   float         float              
12     onnxReshape_56_output       60/240      activations/**default**   float         float              
13     input_56_to_chlast_output   60/240      activations/**default**   float         float              
14     onnxRelu_59_output          10/40       activations/**default**   float         float              
15     onnxGemm_60_output          10/40       activations/**default**   float         float              
16     node_61_output              2/8         activations/**default**   float         float       /output
17     input_weights               30/120      weights/weights           const float   float              
18     input_bias                  3/12        weights/weights           const float   float              
19     input_8_scale               3/12        weights/weights           const float   float              
20     input_8_bias                3/12        weights/weights           const float   float              
21     input_12_weights            75/300      weights/weights           const float   float              
22     input_12_bias               5/20        weights/weights           const float   float              
23     onnxMaxPool_45_scale        5/20        weights/weights           const float   float              
24     onnxMaxPool_45_bias         5/20        weights/weights           const float   float              
25     input_24_weights            100/400     weights/weights           const float   float              
26     input_24_bias               5/20        weights/weights           const float   float              
27     input_32_scale              5/20        weights/weights           const float   float              
28     input_32_bias               5/20        weights/weights           const float   float              
29     input_36_weights            75/300      weights/weights           const float   float              
30     input_36_bias               5/20        weights/weights           const float   float              
31     onnxMaxPool_52_scale        5/20        weights/weights           const float   float              
32     onnxMaxPool_52_bias         5/20        weights/weights           const float   float              
33     input_48_weights            75/300      weights/weights           const float   float              
34     input_48_bias               5/20        weights/weights           const float   float              
35     onnxReshape_56_scale        5/20        weights/weights           const float   float              
36     onnxReshape_56_bias         5/20        weights/weights           const float   float              
37     onnxRelu_59_weights         600/364     weights/weights           const float   c4 (LUT4)          
38     onnxRelu_59_bias            10/40       weights/weights           const float   float              
39     node_61_weights             20/80       weights/weights           const float   float              
40     node_61_bias                2/8         weights/weights           const float   float              
-----------------------------------------------------------------------------------------------------------

C-Layers (16)
-------------------------------------------------------------------------------------------------------------
c_id   name (*_layer)       id   layer_type   macc    rom   tensors                         shape (array id)
-------------------------------------------------------------------------------------------------------------
0      input                2    conv2d       10266   132   I: input_1_output               (1,1250,1,1) (0)
                                                            W: input_weights                (1,3,10,1) (17) 
                                                            W: input_bias                   (1,1,1,3) (18)  
                                                            O: input_output                 (1,311,1,3) (1) 
-------------------------------------------------------------------------------------------------------------
1      input_8              3    bn           1866    24    I: input_output                 (1,311,1,3) (1) 
                                                            W: input_8_scale                (1,1,1,3) (19)  
                                                            W: input_8_bias                 (1,1,1,3) (20)  
                                                            O: input_8_output               (1,311,1,3) (2) 
-------------------------------------------------------------------------------------------------------------
2      input_12             5    conv2d       12325   320   I: input_8_output               (1,311,1,3) (2) 
                                                            W: input_12_weights             (3,5,5,1) (21)  
                                                            W: input_12_bias                (1,1,1,5) (22)  
                                                            O: input_12_output              (1,154,1,5) (3) 
-------------------------------------------------------------------------------------------------------------
3      onnxMaxPool_45       6    bn           1540    40    I: input_12_output              (1,154,1,5) (3) 
                                                            W: onnxMaxPool_45_scale         (1,1,1,5) (23)  
                                                            W: onnxMaxPool_45_bias          (1,1,1,5) (24)  
                                                            O: onnxMaxPool_45_output        (1,154,1,5) (4) 
-------------------------------------------------------------------------------------------------------------
4      input_20             7    pool         2310    0     I: onnxMaxPool_45_output        (1,154,1,5) (4) 
                                                            O: input_20_output              (1,154,1,5) (5) 
-------------------------------------------------------------------------------------------------------------
5      input_24             9    conv2d       5360    420   I: input_20_output              (1,154,1,5) (5) 
                                                            W: input_24_weights             (5,5,4,1) (25)  
                                                            W: input_24_bias                (1,1,1,5) (26)  
                                                            O: input_24_output              (1,51,1,5) (6)  
-------------------------------------------------------------------------------------------------------------
6      input_32             10   bn           510     40    I: input_24_output              (1,51,1,5) (6)  
                                                            W: input_32_scale               (1,1,1,5) (27)  
                                                            W: input_32_bias                (1,1,1,5) (28)  
                                                            O: input_32_output              (1,51,1,5) (7)  
-------------------------------------------------------------------------------------------------------------
7      input_36             12   conv2d       2005    320   I: input_32_output              (1,51,1,5) (7)  
                                                            W: input_36_weights             (5,5,3,1) (29)  
                                                            W: input_36_bias                (1,1,1,5) (30)  
                                                            O: input_36_output              (1,25,1,5) (8)  
-------------------------------------------------------------------------------------------------------------
8      onnxMaxPool_52       13   bn           250     40    I: input_36_output              (1,25,1,5) (8)  
                                                            W: onnxMaxPool_52_scale         (1,1,1,5) (31)  
                                                            W: onnxMaxPool_52_bias          (1,1,1,5) (32)  
                                                            O: onnxMaxPool_52_output        (1,25,1,5) (9)  
-------------------------------------------------------------------------------------------------------------
9      input_44             14   pool         375     0     I: onnxMaxPool_52_output        (1,25,1,5) (9)  
                                                            O: input_44_output              (1,25,1,5) (10) 
-------------------------------------------------------------------------------------------------------------
10     input_48             16   conv2d       965     320   I: input_44_output              (1,25,1,5) (10) 
                                                            W: input_48_weights             (5,5,3,1) (33)  
                                                            W: input_48_bias                (1,1,1,5) (34)  
                                                            O: input_48_output              (1,12,1,5) (11) 
-------------------------------------------------------------------------------------------------------------
11     onnxReshape_56       17   bn           120     40    I: input_48_output              (1,12,1,5) (11) 
                                                            W: onnxReshape_56_scale         (1,1,1,5) (35)  
                                                            W: onnxReshape_56_bias          (1,1,1,5) (36)  
                                                            O: onnxReshape_56_output        (1,12,1,5) (12) 
-------------------------------------------------------------------------------------------------------------
12     input_56_to_chlast   18   transpose    0       0     I: onnxReshape_56_output        (1,12,1,5) (12) 
                                                            O: input_56_to_chlast_output    (1,5,12,1) (13) 
-------------------------------------------------------------------------------------------------------------
13     onnxRelu_59          19   dense        610     404   I: input_56_to_chlast_output0   (1,1,1,60) (13) 
                                                            W: onnxRelu_59_weights          (60,1,1,10) (37)
                                                            W: onnxRelu_59_bias             (1,1,1,10) (38) 
                                                            O: onnxRelu_59_output           (1,1,1,10) (14) 
-------------------------------------------------------------------------------------------------------------
14     onnxGemm_60          20   nl           10      0     I: onnxRelu_59_output           (1,1,1,10) (14) 
                                                            O: onnxGemm_60_output           (1,1,1,10) (15) 
-------------------------------------------------------------------------------------------------------------
15     node_61              21   dense        22      88    I: onnxGemm_60_output           (1,1,1,10) (15) 
                                                            W: node_61_weights              (10,1,1,2) (39) 
                                                            W: node_61_bias                 (1,1,1,2) (40)  
                                                            O: node_61_output               (1,1,1,2) (16)  
-------------------------------------------------------------------------------------------------------------



Number of operations per c-layer
---------------------------------------------------------------------------------------------------------
c_id    m_id   name (type)                      #op (type)                       #param (sparsity)      
---------------------------------------------------------------------------------------------------------
0       2      input (conv2d)                            10,266 (smul_f32_f32)               33 (0.0000)
1       3      input_8 (bn)                               1,866 (smul_f32_f32)                6 (0.0000)
2       5      input_12 (conv2d)                         12,325 (smul_f32_f32)               80 (0.0000)
3       6      onnxMaxPool_45 (bn)                        1,540 (smul_f32_f32)               10 (0.0000)
4       7      input_20 (pool)                            2,310 (op_f32_f32)                            
5       9      input_24 (conv2d)                          5,360 (smul_f32_f32)              105 (0.0000)
6       10     input_32 (bn)                                510 (smul_f32_f32)               10 (0.0000)
7       12     input_36 (conv2d)                          2,005 (smul_f32_f32)               80 (0.0000)
8       13     onnxMaxPool_52 (bn)                          250 (smul_f32_f32)               10 (0.0000)
9       14     input_44 (pool)                              375 (op_f32_f32)                            
10      16     input_48 (conv2d)                            965 (smul_f32_f32)               80 (0.0000)
11      17     onnxReshape_56 (bn)                          120 (smul_f32_f32)               10 (0.0000)
12      18     input_56_to_chlast (transpose)                 0 (smul_f32_f32)                          
13      19     onnxRelu_59 (dense)                          610 (smul_f32_c4)               610 (0.0033)
14      20     onnxGemm_60 (nl)                              10 (op_f32_f32)                            
15      21     node_61 (dense)                               22 (smul_f32_f32)               22 (0.0000)
---------------------------------------------------------------------------------------------------------
total                                                    38,534                           1,056 (0.0019)

  Number of operation types
  ---------------------------------------------
  smul_f32_f32              35,229       91.4%
  op_f32_f32                 2,695        7.0%
  smul_f32_c4                  610        1.6%

Complexity report (model)
---------------------------------------------------------------------------------
m_id   name             c_macc                    c_rom                     c_id
---------------------------------------------------------------------------------
19     fc1_1_weight     |                  1.6%   |||||||||||||||   18.5%   [13]
21     fc2_0_weight     |                  0.1%   ||||               4.0%   [15]
2      input_4          |||||||||||||     26.6%   |||||              6.0%   [0] 
3      input_8          |||                4.8%   |                  1.1%   [1] 
5      input_16         ||||||||||||||||  32.0%   ||||||||||||      14.6%   [2] 
6      onnxMaxPool_45   ||                 4.0%   ||                 1.8%   [3] 
7      input_20         |||                6.0%   |                  0.0%   [4] 
9      input_28         |||||||           13.9%   ||||||||||||||||  19.2%   [5] 
10     input_32         |                  1.3%   ||                 1.8%   [6] 
12     input_40         |||                5.2%   ||||||||||||      14.6%   [7] 
13     onnxMaxPool_52   |                  0.6%   ||                 1.8%   [8] 
14     input_44         |                  1.0%   |                  0.0%   [9] 
16     input_52         ||                 2.5%   ||||||||||||      14.6%   [10]
17     onnxReshape_56   |                  0.3%   ||                 1.8%   [11]
18     input_56         |                  0.0%   |                  0.0%   [12]
20     onnxGemm_60      |                  0.0%   |                  0.0%   [14]
---------------------------------------------------------------------------------
macc=38,534 weights=2,188 act=5,108 ram_io=0

Generated files (7)
--------------------------------------------------------------------------
C:\Users\len12\.stm32cubemx\network_output\network_config.h
C:\Users\len12\.stm32cubemx\network_output\network.h
C:\Users\len12\.stm32cubemx\network_output\network.c
C:\Users\len12\.stm32cubemx\network_output\network_data_params.h
C:\Users\len12\.stm32cubemx\network_output\network_data_params.c
C:\Users\len12\.stm32cubemx\network_output\network_data.h
C:\Users\len12\.stm32cubemx\network_output\network_data.c
